storage/lstm_model.pth (torch, 212213 bytes, 9 tensors)

lstm.weight_ih_l0 f4 [256, 6]
-0.015794668 0.042772263 0.07882367 -0.097605065 0.07357357 -0.068044655 0.064467505 -0.015041382
-0.028079905 -0.008136504 -0.009751997 0.0047658705 -0.0792738 -0.017476939 0.028167745 0.022987762
-0.057335954 0.0055101253 0.008728684 0.07866536 -0.060810458 -0.03290624 -0.06873389 0.13334653
-0.023185713 -0.06852456 0.07912812 0.118194036 -0.013862851 0.10921136 0.0021004896 0.02145368
-0.021564478 -0.074632324 -0.07092703 0.07870271 0.04961514 -0.04352533 0.05485729 -0.10315152
-0.06798512 -0.011661273 0.08284056 -0.06498012 -0.021462398 -0.04907483 0.05856424 0.056044746
0.122388825 0.05485255 -0.087787814 0.107717395 -0.087309144 -0.0838927 0.048563495 0.11793083
-0.12211948 -0.019086827 -0.10968292 0.08141652 0.14208096 0.099298336 0.10623869 -0.015487209
-0.09251858 0.10457542 -0.09901448 -0.037851572 0.09084968 -0.107115746 0.10375867 -0.097136274
0.119586095 0.0854942 -0.027319152 -0.10417866 0.12883468 -0.09674744 -0.024828667 -0.052698497
-0.07275327 -0.057614744 0.054467857 0.07765526 0.13691169 0.044377834 -0.08174204 0.043987595
0.037283603 0.11322435 0.114818595 -0.05087422 0.020737698 0.005969423 -0.01778761 -0.024303118
0.12609646 -0.072286114 -0.02881721 0.02576903 -0.05567725 0.096341155 -0.012136559 -0.07103022
0.10822532 -0.019208282 -0.06087542 0.048597306 0.06975912 -0.017207976 -0.0040515214 0.09600168
0.11462495 0.00520467 -0.02580862 0.041990727 0.036587663 0.06341194 0.061338276 0.09621936
-0.040995277 -0.026778683 0.005267872 -0.05028298 0.114566766 -0.072782435 0.12154781 -0.031687714
-0.009303635 0.088389516 -0.043264247 0.11857581 0.008351378 -0.08484363 -0.056718558 -0.007820111
-0.0055133826 -0.11511522 -0.014729569 0.054238744 -0.06064817 -0.049706385 -0.11205387 0.021761378
-0.08368062 0.0023839884 -0.028741118 -0.06342971 0.008743561 -0.10333465 0.10656632 0.04521394
0.080278374 0.099941045 0.087025784 -0.01910936 -0.13518703 -0.06586098 0.02880608 0.099017166
-0.054454897 0.04941367 0.11831949 0.030088197 -0.06856935 -0.06460867 -0.017780075 -0.113260694
0.087280914 0.049915697 0.14024664 -0.06690857 -0.054393604 0.10707011 -0.10182969 -0.11543269
-0.11108391 0.040085245 0.06475958 -0.029518615 -0.086410485 0.07910037 0.09922662 -0.09898186
-0.10362665 -0.1188797 -0.09654597 -0.09514183 0.1389792 -0.06363281 -0.00033033587 0.13322613
-0.07680389 0.010675757 -0.08990205 0.10799988 -0.0698472 0.11541005 0.0290814 0.03689142
-0.066544436 0.0785755 -0.10811943 0.047748294 -0.08697886 0.008394101 0.112965964 -0.01106208
0.07532947 -0.07474297 0.11358866 -0.04901356 0.07903536 -0.08132017 0.018226717 0.007214104
0.114280626 0.0376167 0.10018523 -0.040511146 -0.10940762 -0.10726619 0.037732847 0.124391854
0.118347 0.04421169 0.048925098 -0.08461454 -0.062116276 -0.061599333 -0.04309853 -0.12397554
0.013072003 0.046755236 0.1081287 -0.011310243 -0.006492411 0.10174481 0.033176687 0.07650417
0.12009287 0.04610316 -0.00022503431 0.1139977 0.1279984 0.019062921 -0.11033246 0.03710414
0.057750497 0.08845827 0.07922005 0.11554877 -0.11028242 -0.07675398 0.0007016624 -0.10149257
00000000: d263 81bc f831 2f3d 4e6e a13d 2ae5 c7bd
00000010: bdad 963d ff5a 8bbd 8a07 843d 2170 76bc
00000020: d407 e6bc f94e 05bc d7c6 1fbc 052b 9c3b
00000030: 4d5a a2bd cc2b 8fbc 0bc0 e63c d550 bc3c
00000040: 1bd9 6abd 488e b43b c102 0f3c 4e1b a13d
00000050: 6314 79bd b2c8 06bd 5bc4 8cbd fe8b 083e
00000060: f7ef bdbc 9b56 8cbd ec0d a23d b70f f23d
00000070: 0321 63bc 35aa df3d 5ea8 093b a1bf af3c
00000080: fda7 b0bc d5d8 98bd 3142 91bd e32e a13d
00000090: 3f39 4b3d 9e47 32bd 0ab2 603d 1b41 d3bd
000000a0: c83b 8bbd ed0e 3fbc 50a8 a93d 4c14 85bd
000000b0: e9d1 afbc b002 49bd 0ee1 6f3d 2d8f 653d
000000c0: fea6 fa3d 11ad 603d 19ca b3bd f09a dc3d
000000d0: 23cf b2bd f0cf abbd 84ea 463d b885 f13d
000000e0: c719 fabd fa5b 9cbc 70a1 e0bd b4bd a63d
000000f0: ac7d 113e ed5c cb3d ac93 d93d 10be 7dbc
00000100: 627a bdbd a32b d63d 1bc8 cabd 400a 1bbd
00000110: 660f ba3d 805f dbbd 6d7f d43d 62ef c6bd
00000120: 8ee9 f43d 9517 af3d 6acc dfbc 9f5b d5bd
00000130: 3ded 033e 8623 c6bd 7d65 cbbc 61da 57bd
00000140: abff 94bd 70fd 6bbd b019 5f3d b909 9f3d
00000150: 9432 0c3e 88c5 353d 5f68 a7bd 562c 343d
00000160: b1b6 183d 2be2 e73d 0326 eb3d 7c61 50bd
00000170: 1be2 a93c 269b c33b 52b7 91bc 5517 c7bc
00000180: 6e1f 013e be0a 94bd 1212 ecbc 9319 d33c
00000190: d40d 64bd 834e c53d 6bd8 46bc 4b78 91bd
000001a0: 3da5 dd3d b05a 9dbc 8158 79bd f80d 473d
000001b0: dfdd 8e3d bef7 8cbc a0c2 84bb 879c c43d
000001c0: 7cc0 ea3d f08b aa3b 996c d3bc 78fe 2b3d
000001d0: f2dc 153d 1fde 813d d83d 7b3d a80e c53d
000001e0: aaea 27bd f85e dbbc 1d9e ac3b 87f5 4dbd
000001f0: fba1 ea3d f50e 95bd 0fee f83d faca 01bd
00000200: 466e 18bc 9005 b53d da35 31bd e0d7 f23d
00000210: 38d4 083c 7fc2 adbd b851 68bd ec1f 00bc
00000220: 9ba9 b4bb 87c1 ebbd 4a54 71bc 7229 5e3d
00000230: 376a 78bd ec98 4bbd 807c e5bd eb44 b23c
00000240: bf60 abbd b03c 1c3b 7e72 ebbc 70e7 81bd
00000250: 2741 0f3c 1ea1 d3bd 713f da3d 4132 393d
00000260: fd68 a43d e4ad cc3d 933a b23d 3c8b 9cbc
00000270: 786e 0abe 1fe2 86bd bafa eb3c 83c9 ca3d
00000280: 190c 5fbd fd65 4a3d 7d51 f23d 867b f63c
00000290: 166e 8cbd 8d51 84bd 85a7 91bc 39f5 e7bd
000002a0: 56c0 b23d 6774 4c3d d19c 0f3e 5c07 89bd
000002b0: d4cb 5ebd 9347 db3d 168c d0bd f967 ecbd
000002c0: f67f e3bd 6d30 243d aca0 843d 06d1 f1bc
000002d0: fbf7 b0bd 60ff a13d 5337 cb3d 00b7 cabd
000002e0: 363a d4bd 3377 f3bd e5b9 c5bd b8d9 c2bd
000002f0: 9050 0e3e eb51 82bd ee30 adb9 6e6c 083e
00000300: 5c4b 9dbd 5fe9 2e3c 911e b8bd 0b2f dd3d
00000310: 0c0c 8fbd 1b5c ec3d 1e3c ee3c 751b 173d
00000320: 7348 88bd 31ec a03d b86d ddbd b793 433d
00000330: f921 b2bd 6987 093c b35a e73d ba3d 35bc
00000340: 5646 9a3d d812 99bd 2ca1 e83d 71c2 48bd
00000350: 4add a13d 308b a6bd 3250 953c 4a64 ec3b
00000360: f60b ea3d f813 1a3d ea2d cd3d 04ef 25bd
00000370: 1a11 e0bd 60ae dbbd c28d 1a3d 28c1 fe3d
00000380: e95f f23d 5117 353d af65 483d 634a adbd
00000390: a36d 7ebd 954f 7cbd 1688 30bd e3e6 fdbd
000003a0: f42b 563c 6b82 3f3d 9472 dd3d 994e 39bc
000003b0: 4abe d4bb 955f d03d 47e4 073d 38ae 9c3d
000003c0: 40f3 f53d abd6 3c3d 30f7 6bb9 a077 e93d
000003d0: 0312 033e d829 9c3c fcf5 e1bd 83fa 173d
000003e0: c98b 6c3d 9c29 b53d 1f3e a23d d5a4 ec3d
000003f0: c0db e1bd 3131 9dbd c4ef 373a 56db cfbd

lstm.weight_hh_l0 f4 [256, 64]
0.015118727 -0.05753613 0.10511516 0.05839548 0.021330116 0.016093614 -0.067066565 0.06805606
0.0029208888 0.008358646 0.0013271997 0.08676596 0.025007056 -0.008731934 -0.062114142 0.08232687
-0.09493568 -0.08380915 0.14163221 -0.11337841 0.07724666 -0.11119709 -0.044576116 0.008196547
0.049019847 -0.11294174 -0.09385755 -0.13376787 0.11502785 -0.007510433 -0.023561088 -0.10255271
0.0400283 -0.0628352 0.0023600236 -0.096675776 0.10441299 -0.024952147 0.06223205 -0.10078674
0.069498055 -0.027997954 0.019121323 0.02390604 -0.08468834 -0.06697337 0.06962805 0.11354627
0.023907095 -0.015477721 0.019651687 -0.059001278 0.09108251 0.09882174 0.04278085 -0.052151833
-0.08322435 0.09199621 0.04487336 -0.0005808398 0.015459882 0.12873526 0.08853147 -0.0665297
-0.03685791 -0.10079262 -0.015655104 -0.07478516 0.042599067 -0.11817792 0.060373247 0.04658705
0.08864204 -0.11465357 -0.0077075213 0.08306954 -0.0687068 -0.004852975 0.028395861 -0.07982222
-0.04230318 0.025535235 0.10684221 -0.07546734 -0.12894362 -0.03221095 0.004865625 0.06902447
-0.115397975 -0.04243529 0.11160515 0.036353033 0.028793912 0.09500158 0.05889927 0.027107492
0.03481156 -0.09169875 -0.12512088 -0.025319647 0.10807361 0.025373682 0.05783881 0.08475599
-0.111722164 -0.044619024 0.032009747 0.06796649 -0.13077453 0.041913062 -0.10542581 0.0148100555
0.121735476 0.086060695 -0.04650529 -0.10830691 0.10769774 -0.007921978 0.1273029 -0.09337875
-0.10274967 -0.08320319 -0.100074835 -0.042066257 -0.12929241 0.05243163 0.08287443 -0.016679604
-0.0644954 -0.015356125 0.02920185 -0.012522787 0.10692284 -0.04150661 0.1061454 0.0670879
-0.048491947 -0.10344128 0.00389363 -0.10640586 -0.108404055 0.030164449 -0.032660402 0.048174433
0.113060735 -0.11121581 0.07635937 0.051752567 0.093728095 0.034010544 0.123199314 -0.069192134
0.05642341 0.085658684 -0.11137296 -0.002705533 -0.013603977 0.035599746 0.020090032 0.036041547
-0.12307714 -0.042468805 -0.0415742 -0.03075172 0.036037017 0.08953986 0.0609695 0.07244549
-0.06207279 -0.13139969 0.0038332506 0.08248234 0.022639422 0.060256038 0.011714221 0.0010862823
0.080304906 -0.064599775 0.026206885 0.018572472 -0.060126174 0.07497486 0.08583332 0.10487045
-0.059501536 -0.056813203 0.06967883 0.049384642 -0.064587675 -0.024763685 -0.05495586 -0.061425768
0.05316261 0.13297991 -0.11340144 0.088085316 0.025988191 -0.08391895 0.0089990655 0.116281115
0.09107085 0.08288051 -0.013434979 0.08983888 -0.033961505 0.09047116 -0.07610208 -0.00021681591
-0.032436065 0.124378085 0.062395204 0.06253043 -0.065323286 -0.06059142 0.14111511 -0.0062903585
-0.024550691 0.06744167 0.029160291 -0.09009954 0.089599974 -0.1399938 -0.0016215814 0.097118974
-0.040226437 -0.014422918 -0.058268543 0.020165846 0.08190097 -0.04683033 -0.04461641 -0.048849724
0.0764665 -0.11369862 0.062330034 -0.02524892 0.123432636 0.059132315 -0.08813831 0.112678714
0.018830134 -0.045784455 -0.093187444 0.0214476 -0.12627205 -0.044882197 -0.043581564 -0.11017914
-0.08185376 -0.110689595 0.12648576 -0.014643999 0.038611144 -0.08046241 0.08135985 -0.02514396
00000000: 8ab4 773c 01ab 6bbd 9e46 d73d 1930 6f3d
00000010: 7fbc ae3c c1d6 833c 325a 89bd fa60 8b3d
00000020: 626c 3f3b b4f2 083c 6ff5 ad3a 5ab2 b13d
00000030: 99db cc3c 6310 0fbc 666b 7ebd fd9a a83d
00000040: a36d c2bd 22a4 abbd 0908 113e f132 e8bd
00000050: 7f33 9e3d 4dbb e3bd 7295 36bd cf4a 063c
00000060: 09c9 483d 004e e7bd 6338 c0bd 72fa 08be
00000070: b993 eb3d 141a f6bb 2f03 c1bc 2807 d2bd
00000080: b7f4 233d beaf 80bd a0aa 1a3b f3fd c5bd
00000090: 7ad6 d53d 7268 ccbc 09e7 7e3d 4769 cebd
000000a0: ff54 8e3d f75b e5bc 52a4 9c3c 99d6 c33c
000000b0: 1571 adbd 5629 89bd 2799 8e3d f28a e83d
000000c0: d0d8 c33c 4496 7dbc 93fc a03c 53ab 71bd
000000d0: 7889 ba3d 0d63 ca3d f93a 2f3d 299d 55bd
000000e0: 8771 aabd 8268 bc3d 21cd 373d 8043 18ba
000000f0: 724b 7d3c 2dd3 033e fd4f b53d b940 88bd
00000100: 52f8 16bd 5c6c cebd 223f 80bc f628 99bd
00000110: 5c7c 2e3d 4407 f2bd f049 773d 10d2 3e3d
00000120: f589 b53d 7ecf eabd 608f fcbb 5d20 aa3d
00000130: 27b6 8cbd b405 9fbb 709e e83c d579 a3bd
00000140: 1946 2dbd 452f d13c 17d0 da3d 9f8e 9abd
00000150: cc09 04be a1ef 03bd d26f 9f3b b45c 8d3d
00000160: c655 ecbd a0d0 2dbd 3e91 e43d ebe6 143d
00000170: 36e1 eb3c 3090 c23d 5c40 713d 8810 de3c
00000180: 9196 0e3d 8ecc bbbd b01f 00be 266b cfbc
00000190: b255 dd3d 78dc cf3c 63e8 6c3d 8c94 ad3d
000001a0: 97ce e4bd 70c2 36bd a71c 033d 0432 8b3d
000001b0: c2e9 05be 08ad 2b3d 7de9 d7bd e0a5 723c
000001c0: 7350 f93d 9740 b03d 557c 3ebd 03d0 ddbd
000001d0: a290 dc3d 2fcb 01bc b15b 023e 5c3d bfbd
000001e0: 6b6e d2bd 6f66 aabd 09f4 ccbd ab4d 2cbd
000001f0: 3b65 04be 8dc2 563d 12ba a93d aaa3 88bc
00000200: 2a16 84bd 4298 7bbc b838 ef3c 602c 4dbc
00000210: 5dfa da3d d602 2abd c262 d93d 6265 893d
00000220: 7e9f 46bd 06d9 d3bd 462c 7f3b 51eb d9bd
00000230: f202 debd 6f1b f73c eac6 05bd 8e52 453d
00000240: 638c e73d 1dc5 e3bd 4d62 9c3d 80fa 533d
00000250: 84f4 bf3d a44e 0b3d ec4f fc3d 9bb4 8dbd
00000260: 3c1c 673d d26d af3d 8217 e4bd 504f 31bb
00000270: 37e3 5ebc 0ad1 113d da93 a43c 4da0 133d
00000280: de0f fcbd c5f3 2dbd b549 2abd 08eb fbbc
00000290: 8d9b 133d ad60 b73d 28bb 793d 4d5e 943d
000002a0: 0a40 7ebd a48d 06be 4637 7b3b 80ec a83d
000002b0: 4f76 b93c 09cf 763d 01ed 3f3c 9661 8e3a
000002c0: e676 a43d e34c 84bd d2af d63c 4c25 983c
000002d0: dd46 76bd 6b8c 993d 61c9 af3d 52c6 d63d
000002e0: e2b7 73bd f6b4 68bd c6b3 8e3d 8d47 4a3d
000002f0: 8b46 84bd 36dd cabc 6519 61bd 9699 7bbd
00000300: 09c1 593d e32b 083e 043f e8bd 1366 b43d
00000310: 30e5 d43c b3dd abbd d170 133c cb24 ee3d
00000320: 5b83 ba3d 42bd a93d 631e 5cbc 72fd b73d
00000330: 381b 0bbd f248 b93d 68db 9bbd 1459 63b9
00000340: aedb 04bd f0b9 fe3d 1d92 7f3d f40f 803d
00000350: 37c8 85bd b52e 78bd 7b80 103e 5a1f cebb
00000360: 881e c9bc dc1e 8a3d 90e1 ee3c 1c86 b8bd
00000370: 3180 b73d 895a 0fbe 3e8b d4ba 50e6 c63d
00000380: 7ac4 24bd 1a4e 6cbc ffaa 6ebd d832 a53c
00000390: b2bb a73d 29d1 3fbd b2bf 36bd a616 48bd
000003a0: 789a 9c3d d2da e8bd c74d 7f3d d3d6 cebc
000003b0: 40ca fc3d ba34 723d dc81 b4bd 19c4 e63d
000003c0: a741 9a3c 7b88 3bbd 0fd9 bebd e1b2 af3c
000003d0: 764d 01be 65d6 37bd 9582 32bd 9aa5 e1bd
000003e0: f2a2 a7bd 3ab1 e2bd 7c85 013e 62ed 6fbc
000003f0: b826 1e3d 7ac9 a4bd fe9f a63d b5fa cdbc

lstm.bias_ih_l0 f4 [256]
0.104829066 0.016222548 0.050760437 0.05282299 -0.099174365 -0.061630797 -0.026674606 0.0975435
-0.098471686 0.09382373 0.077374406 0.098987415 -0.053313877 0.033159114 0.07623477 -0.12033737
0.026353763 -0.030653942 0.07350382 -0.019367142 0.019359842 -0.082631424 0.0010310585 0.014313227
-0.021519797 -0.013753993 -0.10396919 0.115036905 0.010531304 -0.116160505 0.055343367 0.031493414
-0.03739718 -0.02585774 0.100815624 0.01359244 -0.104374826 -0.059036437 0.057068136 0.118856855
-0.10110945 -0.11174628 -0.070461564 0.02769765 0.07757646 0.05154879 -0.037047468 0.009640599
-0.08642292 0.12675846 0.047233585 0.038766522 0.06671298 -0.039904002 0.031757206 0.076885864
0.057462707 -0.086645685 0.04717881 -0.09047331 0.025939748 -0.014935004 -0.066098616 -0.010074707
-0.10294377 -0.05747399 0.0019974455 0.061152067 0.008566003 0.039042138 0.038927697 -0.09697143
0.046523385 -0.1217977 -0.03013878 0.044487827 -0.09917841 0.082219794 -0.013938764 -0.06457837
0.08964528 -0.11574612 -0.026595604 -0.113279365 -0.097662956 0.07837954 0.11087575 0.0028535852
-0.11764464 0.026584884 -0.013058868 -0.103386804 -0.047953654 0.028785024 0.08181741 -0.02682019
-0.03946471 0.0026782765 -0.08950077 0.10381799 -0.08745016 -0.079036996 0.10590839 -0.108904414
-0.09717155 0.010356445 0.079125434 0.061131734 -0.00565131 -0.08815405 0.117696986 0.056493994
0.08056627 0.015861642 0.011185469 -0.10293975 0.089667246 -0.03746598 -0.09963833 -0.027681923
0.1235566 -0.10750406 0.052209776 -0.088850975 0.07660763 0.071278095 0.055414427 0.11169111
-0.037706226 -0.13619672 -0.066189334 -0.043249913 -0.10073655 0.0016179725 0.107166216 0.041792583
0.06615533 0.10799423 0.13160133 -0.05036184 -0.074958965 0.09387719 0.01766335 0.0911743
0.020898737 0.11153032 -0.0904247 0.0035903682 0.04742181 -0.01239108 -0.008848336 -0.05595592
0.02079163 -0.0009012142 -0.02741632 -0.097312264 -0.09702287 -0.0655624 0.0058585275 0.015679507
-0.05351195 0.08729802 0.13227029 -0.04122275 0.108246766 -0.025223967 0.029696304 0.11980381
-0.119737715 -0.00197822 0.10131253 -0.08709229 0.11014712 -0.10655061 0.08380307 0.11959451
-0.061125774 0.018945843 -0.0033876114 -0.100067906 0.044545777 -0.026701609 -0.02226453 -0.08830028
-0.12404981 0.028549436 -0.062381625 -0.020812212 -0.015091339 0.059106816 0.071729675 0.06756464
0.114556275 -0.099770665 -0.0011976552 0.104439855 -0.006723202 -0.01566046 0.022057615 0.09874157
-0.11105911 0.09812117 0.048485544 0.021419998 0.13503174 -0.063731164 0.03921065 0.0747597
0.07844139 0.02733074 0.02131605 -0.004089769 -0.09389987 -0.012711052 0.012277522 0.104886144
-0.111400075 0.1293962 0.0053066746 0.044030927 -0.059067607 0.059183206 0.03417557 -0.09353738
0.11675755 -0.1144604 0.10495119 -0.09475626 0.08467483 -0.041544605 -0.028220186 -0.08785924
-0.06257849 -0.09138484 0.12207185 -0.08708857 -0.058571983 -0.05869931 0.018498128 0.060525823
0.0982873 -0.07663437 -0.09239028 0.12587099 0.0849882 0.115344346 -0.025184477 0.08099456
0.08385033 -0.09507321 -0.08923419 -0.025024971 0.046077237 0.037542854 0.1125033 0.05537633
00000000: 9fb0 d63d 26e5 843c 2dea 4f3d eb5c 583d
00000010: ee1b cbbd 9370 7cbd b484 dabc e3c4 c73d
00000020: 86ab c9bd a826 c03d 7976 9e3d eab9 ca3d
00000030: a75f 5abd dad1 073d fa20 9c3d 7073 f6bd
00000040: d9e3 d73c fa1d fbbc 2c89 963d d7a7 9ebc
00000050: 8898 9e3c aa3a a9bd 9524 873a 0682 6a3c
00000060: 494a b0bc 6e58 61bc cced d4bd 7898 eb3d
00000070: 7e8b 2c3c 8fe5 edbd baaf 623d 3dff 003d
00000080: c92d 19bd 9cd3 d3bc 6c78 ce3d d3b2 5e3c
00000090: 78c2 d5bd 31d0 71bd 47c0 693d 396b f33d
000000a0: 7912 cfbd 3cdb e4bd 274e 90bd 2fe6 e23c
000000b0: 68e0 9e3d d324 533d 16bf 17bd 9af3 1d3c
000000c0: 80fe b0bd f8cc 013e 0178 413d a5c9 1e3d
000000d0: d1a0 883d 6172 23bd d813 023d 5676 9d3d
000000e0: 045e 6b3d 4b73 b1bd 913e 413d 124a b9bd
000000f0: 987f d43c f2b1 74bc b65e 87bd 6210 25bc
00000100: 2fd4 d2bd d969 6bbd 93e7 023b 977a 7a3d
00000110: 6c58 0c3c a6ea 1f3d a672 1f3d f598 c6bd
00000120: 4e8f 3e3d 1371 f9bd 9ae5 f6bc de38 363d
00000130: 0d1e cbbd da62 a83d 6a5f 64bc aa41 84bd
00000140: f297 b73d 4d0c edbd 06df d9bc 03ff e7bd
00000150: 8403 c8bd 7485 a03d d312 e33d 3703 3b3b
00000160: acef f0bd 8bc8 d93c ddf4 55bc 76bc d3bd
00000170: 0d6b 44bd 92ce eb3c e38f a73d 04b6 dbbc
00000180: bfa5 21bd 0686 2f3b 2e4c b7bd 879e d43d
00000190: 1219 b3bd 26de a1bd 7fe6 d83d 4709 dfbd
000001a0: e101 c7bd 14ae 293c 840c a23d 4565 7a3d
000001b0: a02e b9bb 1c8a b4bd 1e0b f13d 3f66 673d
000001c0: eeff a43d 46f0 813c 4243 373c 13d2 d2bd
000001d0: 76a3 b73d ed75 19bd 2e0f ccbd 33c5 e2bc
000001e0: 3e0b fd3d 172b dcbd ebd9 553d 80f7 b5bd
000001f0: 76e4 9c3d 40fa 913d 3dfa 623d 4fbe e43d
00000200: d871 1abd 2777 0bbe 468e 87bd d226 31bd
00000210: f74e cebd 2612 d43a f679 db3d b32e 2b3d
00000220: 727c 873d 142c dd3d 80c2 063e 3748 4ebd
00000230: 1684 99bd af42 c03d bbb2 903c 97b9 ba3d
00000240: d433 ab3c 026a e43d 9630 b9bd 624c 6b3b
00000250: 5f3d 423d f503 4bbc 9cf8 10bc 0932 65bd
00000260: 3553 aa3c 763f 6cba 3198 e0bc a74b c7bd
00000270: edb3 c6bd 9445 86bd e4f8 bf3b 4f72 803c
00000280: 592f 5bbd 4ec9 b23d dd71 073e 30d9 28bd
00000290: 7bb0 dd3d 7ea2 cebc aa45 f33c b35b f53d
000002a0: 0c39 f5bd 06a5 01bb f27c cf3d 715d b2bd
000002b0: d094 e13d 3537 dabd f2a0 ab3d f7ed f43d
000002c0: 055f 7abd 5034 9b3c b002 5ebb 67f0 ccbd
000002d0: a275 363d 55bd dabc 1b64 b6bc c7d6 b4bd
000002e0: d40d febd 82e0 e93c e083 7fbd 5f7e aabc
000002f0: aa41 77bc fd19 723d 02e7 923d 545f 8a3d
00000300: 7b9c ea3d 9054 ccbd a4fa 9cba 90e4 d53d
00000310: 4e4e dcbb 5d4a 80bc 2cb2 b43c 0539 ca3d
00000320: f572 e3bd c1f3 c83d c798 463d fe78 af3c
00000330: c345 0a3e 7c85 82bd 599b 203d 9d1b 993d
00000340: e1a5 a03d b7e4 df3c ff9e ae3c 7803 86bb
00000350: 934e c0bd 0442 50bc a927 493c 8cce d63d
00000360: b925 e4bd 7080 043e 9de3 ad3b c659 343d
00000370: e0f0 71bd 176a 723d affb 0b3d 8790 bfbd
00000380: 951e ef3d 376a eabd a6f0 d63d 920f c2bd
00000390: ff69 ad3d ad2a 2abd 052e e7bc 8cef b3bd
000003a0: 2729 80bd fa27 bbbd ce00 fa3d 7e5b b2bd
000003b0: 2de9 6fbd b06e 70bd 6389 973c ede9 773d
000003c0: da4a c93d 7bf2 9cbd 1d37 bdbd 53e4 003e
000003d0: 4b0e ae3d a839 ec3d ad4f cebc 7ae0 a53d
000003e0: b9b9 ab3d beb5 c2bd 6ac0 b6bd 2b01 cdbc
000003f0: 7cbb 3c3d 89c6 193d 2168 e63d 4ad2 623d

lstm.bias_hh_l0 f4 [256]
0.06364562 -0.057349004 0.102767736 -0.0120192235 -0.021971824 -0.050690923 -0.062202632 -0.077493705
-0.10476789 -0.035716955 -0.02783002 0.023877792 -0.014270917 0.10625966 0.1107882 -0.019082386
-0.09243871 0.036993407 0.119908795 -0.12018784 0.1246896 -0.06886993 -0.052768234 0.08222592
0.05052422 -0.04268695 -0.10815334 -0.036028072 0.036029052 -0.068574406 0.06439439 -0.06384064
0.059790265 0.060981605 0.045463163 0.06845567 -0.070552826 0.09933102 0.028658139 -0.090431266
-0.100148164 0.0048351698 0.03605473 -0.0069403946 0.035155047 -0.113695055 -0.06278987 -0.08748327
-0.10792753 -0.06119033 0.08365547 0.09591845 -0.026912507 0.11214536 0.012823299 0.054714613
-0.02608538 -0.0374228 0.055588443 -0.100791246 -0.06395379 -0.09452879 0.12811951 0.07403581
0.025122577 0.08561929 0.028208464 -0.088560894 -0.10541089 0.07601175 -0.080953 0.014360086
0.114721216 -0.10316982 0.005521384 0.13361092 0.0018626252 0.12374315 -0.03941509 0.098969646
0.046249807 0.019186122 0.00087212457 0.08594776 0.057528935 0.06311717 -0.05552803 -0.014339555
0.101648614 0.12039742 -0.1137861 0.049911983 -0.013862718 -0.07554648 0.059051197 -0.05782856
0.065225884 0.078612156 0.037320167 -0.07819898 -0.11886847 -0.11437945 0.0073311664 0.015213228
-0.06600993 0.0056709982 -0.10688107 0.11060285 0.04364646 -0.07868306 -0.032683272 0.090741985
0.0706276 -0.008292188 0.07641832 -0.03979034 -0.08107868 0.07747269 0.053177662 -0.026848903
-0.022542793 -0.07272559 0.022946998 0.016417671 0.023057146 0.0016131799 0.003376633 0.068197094
0.010111552 0.11053179 -0.089199275 0.11411104 0.007810992 -0.028636944 -0.08846076 0.055370983
0.10020548 -0.09536706 0.039487053 -0.10493674 0.10370065 0.1257265 -0.01040302 -0.10183645
-0.028356872 -0.089497864 0.1319683 -0.047093995 -0.040642936 0.13448204 0.02337313 0.015542174
0.08574848 -0.001289449 -0.0785316 0.03303864 0.06886225 -0.0068045757 -0.047876794 -0.03594301
0.01778522 0.067467585 -0.10605599 -0.027039414 0.03422453 0.05854275 -0.06940481 0.08469265
-0.115523204 -0.046634242 0.10369012 0.08157953 -0.0983088 -0.084498994 -0.03390672 0.010536291
-0.07024873 0.069651216 -0.038655892 -0.0067119617 0.022228362 0.13258922 -0.08831217 0.033599693
0.025024671 0.02296047 0.013401406 0.0789158 0.07855584 0.0052105375 -0.0104898345 0.010964492
-0.018454777 -0.07271007 -0.11203729 -0.08953045 0.048306134 -0.113573276 0.11234932 -0.1067752
-0.06489754 0.041522443 -0.030938014 0.051010925 -0.03268427 0.014912711 -0.039724346 0.08553887
0.097723775 -0.031295527 -0.053834025 0.029553032 0.1013822 -0.07176797 -0.063045755 -0.09755814
-0.06721609 -0.0042180996 0.061557375 -0.09856997 -0.093967944 0.10816573 -0.0051810048 -0.06725239
0.030126281 -0.036058806 -0.088175416 0.083322704 -0.03206992 0.09211376 -8.560292e-05 -0.0028251305
-0.057533383 -0.06740716 0.101846315 0.010422185 -0.06313626 0.01185585 0.06871463 0.10842477
0.069160104 -0.034288105 -0.06372508 -0.010417523 0.13451888 -0.09221698 0.08771668 -0.03962611
-0.053125627 0.033713866 0.103746325 -0.045697615 -0.0047809756 -0.1065405 0.042446095 0.08631442
00000000: a358 823d cae6 6abd e477 d23d 47ec 44bc
00000010: 41fe b3bc 49a1 4fbd 30c8 7ebd 05b5 9ebd
00000020: 8c90 d6bd f14b 12bd c8fb e3bc 5c9b c33c
00000030: 90d0 69bc aa9e d93d ece4 e23d aa52 9cbc
00000040: 8250 bdbd 6686 173d be92 f53d 0b25 f6bd
00000050: 435d ff3d ae0b 8dbd 8123 58bd 1066 a83d
00000060: 7cf2 4e3d 83d8 2ebd 807f ddbd 2c92 13bd
00000070: 3393 133d bd70 8cbd 35e1 833d e2be 82bd
00000080: a3e6 743d d9c7 793d 9537 3a3d 7c32 8c3d
00000090: 007e 90bd 106e cb3d 79c4 ea3c 0734 b9bd
000000a0: 7b1a cdbd 5870 9e3b 20ae 133d 406c e3bb
000000b0: bdfe 0f3d f4d8 e8bd fa97 80bd 6e2a b3bd
000000c0: 1c09 ddbd b6a2 7abd 8f53 ab3d e470 c43d
000000d0: 9e77 dcbc 77ac e53d d018 523c 6e1c 603d
000000e0: 02b1 d5bc a648 19bd b5b0 633d a46b cebd
000000f0: 34fa 82bd 4f98 c1bd c331 033e 16a0 973d
00000100: ddcd cd3c 2b59 af3d 7015 e73c 6a5f b5bd
00000110: aae1 d7bd 0cac 9b3d b0ca a5bd 9146 6b3c
00000120: f5f2 ea3d b34a d3bd baec b43b 4dd1 083e
00000130: 5523 f43a 0c6d fd3d b871 21bd 99b0 ca3d
00000140: 7070 3d3d 372c 9d3c 4a9f 643a 6105 b03d
00000150: 76a3 6b3d 9343 813d 5c71 63bd 74f0 6abc
00000160: 262d d03d ec92 f63d b008 e9bd 8270 4c3d
00000170: 7420 63bc 1db8 9abd abdf 713d a4dd 6cbd
00000180: 2695 853d 69ff a03d 08dd 183d c926 a0bd
00000190: 5071 f3bd c63f eabd 483a f03b e740 793c
000001a0: 3730 87bd c8d3 b93b 76e4 dabd bf83 e23d
000001b0: a1c6 323d 9624 a1bd e5de 05bd efd6 b93d
000001c0: 34a5 903d f5db 07bc 3581 9c3d 32fb 22bd
000001d0: 940c a6bd 00aa 9e3d d2d0 593d 3bf2 dbbc
000001e0: aaab b8bc 27f1 94bd 58fb bb3c 5a7e 863c
000001f0: 57e2 bc3c 5671 d33a 804a 5d3b ebaa 8b3d
00000200: ecaa 253c 7e5e e23d 1cae b6bd 0db3 e93d
00000210: 5af3 ff3b 0698 eabc ea2a b5bd afcc 623d
00000220: 8838 cd3d ce4f c3bd 2dbd 213d 13e9 d6bd
00000230: 0261 d43d 73be 003e 6e71 2abc a18f d0bd
00000240: ac4c e8bc a84a b7bd b322 073e a2e5 40bd
00000250: 3579 26bd a9b5 093e 0279 bf3c 9aa4 7e3c
00000260: e69c af3d bb02 a9ba 2dd5 a0bd 8653 073d
00000270: a707 8d3d ebf8 debb 751a 44bd fa38 13bd
00000280: 4fb2 913c 722c 8a3d e233 d9bd c381 ddbc
00000290: 052f 0c3d 86ca 6f3d 1c24 8ebd 5773 ad3d
000002a0: 6e97 ecbd 8c03 3fbd 7c5b d43d 2b13 a73d
000002b0: 2056 c9bd cf0d adbd c6e1 0abd 68a0 2c3c
000002c0: 91de 8fbd 4ca5 8e3d a455 1ebd 04f0 dbbb
000002d0: 4118 b63c 78c5 073e 03dd b4bd d59f 093d
000002e0: 8a00 cd3c 9817 bc3c 9291 5b3c 9b9e a13d
000002f0: e2e1 a03d 28bd aa3b 8edd 2bbc 6aa4 333c
00000300: 792e 97bc 04e9 94bd cf73 e5bd be5b b7bd
00000310: a7dc 453d 1b99 e8bd 6617 e63d f5ac dabd
00000320: 00e9 84bd 7013 2a3d b871 fdbc d5f0 503d
00000330: f1df 05bd 7254 743c ffb5 22bd 012f af3d
00000340: 6723 c83d bd2f 00bd 1181 5cbd 3319 f23c
00000350: 79a1 cf3d 16fb 92bd 221e 81bd 90cc c7bd
00000360: 97a8 89bd fc37 8abb 9623 7c3d 0ddf c9bd
00000370: 4472 c0bd ff85 dd3d 6bc5 a9bb 9fbb 89bd
00000380: 64cb f63c 66b2 13bd 5095 b4bd 18a5 aa3d
00000390: c05b 03bd 24a6 bc3d b885 b3b8 d325 39bb
000003a0: 20a8 6bbd c40c 8abd cd94 d03d d0c1 2a3c
000003b0: 954d 81bd 0a3f 423c 42ba 8c3d ce0d de3d
000003c0: d0a3 8d3d af71 0cbd 4b82 82bd 42ae 2abc
000003d0: 51bf 093e 42dc bcbd cda4 b33d fd4e 22bd
000003e0: 429a 59bd 8d17 0a3d f478 d43d 6c2d 3bbd
000003f0: bba9 9cbb e831 dabd f5db 2d3d 9dc5 b03d

lstm.weight_ih_l1 f4 [256, 64]
0.10046388 0.02274996 -0.021607894 0.051890165 -0.011765053 -0.08343271 -0.015715612 0.049617663
-0.079652146 0.0061227297 -0.110036194 0.032840952 -0.016384423 -0.025418812 0.11456807 -0.02204812
-0.07296463 -0.102513805 0.015762256 0.10579602 0.07884073 0.07171547 0.06722247 0.081650406
0.033387605 -0.10103742 -0.08360741 0.11513031 -0.09881701 -0.095921084 0.073500216 -0.089842916
-0.12204799 0.06111467 -0.044451926 -0.022687878 0.043941583 0.109354235 -0.1096068 -0.07197212
0.01344348 0.010812253 -0.032358993 0.008231403 -0.021297852 -0.10822709 -0.07976544 -0.09955214
-0.12935041 0.0674773 -0.13296369 -0.042807322 0.056182485 0.07151487 -0.05109375 -0.024812723
-0.028999364 0.09270548 -0.025336295 -0.1207339 0.03383319 -0.10722471 -0.020236082 0.116630726
-0.07874562 -0.05289223 -0.025433417 0.06727235 0.0125274705 -0.02525819 0.11252228 0.054270368
0.0510444 0.0074390476 0.0936623 0.044658035 -0.06775238 -0.012090892 -0.100035116 0.118459195
0.113823675 0.09567687 -0.11812859 0.08933271 -0.120220624 0.09015336 -0.039168987 0.0064136293
-0.09980475 0.019480981 -0.042855263 -0.043901257 -0.072923265 0.091402754 -0.094296314 -0.12332973
0.08810495 -0.063670166 0.11903084 0.017955564 -0.035661507 0.03435879 0.06463959 0.0603049
0.088922404 0.10789419 0.028666114 0.04713436 0.011034418 -0.006473398 0.02544154 0.083026275
-0.035680704 -0.06322934 0.1004078 -0.03294915 -0.10976447 0.06972534 -0.059855647 -0.00882046
0.010666114 -0.013195421 -0.057071216 -0.043768167 0.10344233 -0.0039119385 0.06766593 -0.0031099322
0.062335886 0.06595694 -0.11556392 -0.022785641 -0.10113718 0.071110085 -0.13145532 0.05129625
0.008774096 0.10428763 -0.07310771 -0.12146433 0.06428753 -0.03199318 0.13250752 0.080489546
0.06940476 0.12924011 -0.00532069 -0.10276173 -0.049493775 -0.11314426 0.04720785 0.013241403
-0.06234236 -0.062287994 -0.041430894 -0.042613484 -0.0276356 -0.021910723 0.094672516 -0.1079675
0.09081332 0.07919932 -0.0846514 0.05014165 -0.03579842 0.0803365 0.042610038 0.043047138
-0.035635147 0.048724346 -0.085257284 -0.054847885 -0.039917547 0.011740319 0.12322398 -0.031254735
0.023224764 0.019994656 -0.1180351 -0.0077381376 0.023293972 -0.05401668 0.07532718 -0.008657157
-0.13405634 -0.094177775 -0.048288368 0.034101132 -0.019066557 -0.057855245 0.02993376 -0.066620626
-0.10556758 0.07969694 0.03777683 0.025104895 -0.05643943 0.015532448 0.005822624 0.09383852
-0.10555569 0.014349129 -0.06917535 0.13546452 -0.009111943 0.04265345 -0.115313195 0.08008024
0.019337112 0.11381417 -0.13422906 -0.07010001 -0.06656421 0.04242555 0.06479766 -0.067373656
0.062324814 -0.116697736 -0.008936935 0.103494376 0.062257893 0.11320201 0.08775901 -0.1278904
0.07515863 -0.13285512 0.11212374 0.104358375 -0.022792073 -0.013997301 -0.025684176 -0.083905056
0.1083087 0.045322124 -0.10915803 -0.11747106 -0.09692194 0.054061465 -0.010827572 0.05344869
0.11335717 0.103714734 0.12302521 0.13053879 0.029003125 -0.083622746 -0.03969409 0.031572565
-0.018912049 -0.10773506 0.08906388 0.117246896 -0.027009225 -0.08187715 0.083930865 0.088199265
00000000: 02c0 cd3d 205e ba3c 0a03 b1bc c88a 543d
00000010: 35c2 40bc c5de aabd 07be 80bc e43b 4b3d
00000020: aa20 a3bd 2ea1 c83b a85a e1bd 3c84 063d
00000030: a038 86bc 1d3b d0bc aaa2 ea3d 429e b4bc
00000040: 7b6e 95bd c2f2 d1bd d91f 813c 95ab d83d
00000050: 4077 a13d 8fdf 923d efab 893d 5438 a73d
00000060: 71c1 083d b5ec cebd 5d3a abbd 71c9 eb3d
00000070: 9360 cabd 4672 c4bd 4887 963d 90ff b7bd
00000080: 4cf4 f9bd 6053 7a3d 3913 36bd eedb b9bc
00000090: 17fc 333d 1df5 df3d 8879 e0bd 1e66 93bd
000000a0: 0b42 5c3c e025 313c dd8a 04bd 02dd 063c
000000b0: d578 aebc 2aa6 ddbd 105c a3bd fee1 cbbd
000000c0: 6f74 04be 8a31 8a3d a227 08be bb56 2fbd
000000d0: 9b1f 663d 6376 923d ae47 51bd 0d44 cbbc
000000e0: 1390 edbc 5fdc bd3d 108e cfbc 5643 f7bd
000000f0: ac94 0a3d a198 dbbd 24c6 a5bc 17dc ee3d
00000100: 6245 a1bd 86a5 58bd be59 d0bc 16c6 893d
00000110: 0540 4d3c 44ea cebc 1572 e63d 9b4a 5e3d
00000120: ef13 513d 41c3 f33b 05d2 bf3d 58eb 363d
00000130: c3c1 8abd e018 46bc 36df ccbd bc9a f23d
00000140: 631c e93d 3cf2 c33d 67ed f1bd 11f4 b63d
00000150: 3b36 f6bd 53a2 b83d a96f 20bd 6c29 d23b
00000160: 6f66 ccbd 9496 9f3c 0089 2fbd ced1 33bd
00000170: cb58 95bd 5e31 bb3d 6d1e c1bd 4c94 fcbd
00000180: 5e70 b43d 8165 82bd 71c6 f33d 8c17 933c
00000190: cd11 12bd cdbb 0c3d c361 843d 4502 773d
000001a0: f31c b63d a1f7 dc3d 33d5 ea3c f50f 413d
000001b0: b4c9 343c cc1e d4bb c76a d03c ae09 aa3d
000001c0: ee25 12bd 627e 81bd 9ba2 cd3d b0f5 06bd
000001d0: 32cc e0bd 29cc 8e3d 322b 75bd b183 10bc
000001e0: edc0 2e3c 9b31 58bc 82c3 69bd 4046 33bd
000001f0: 93d9 d33d b82f 80bb 6f94 8a3d 01d0 4bbb
00000200: ea53 7f3d 6f14 873d c7ac ecbd f4a8 babc
00000210: 0321 cfbd 2aa2 913d 399c 06be 041c 523d
00000220: 3ac1 0f3c c194 d53d 7fb9 95bd 4ac2 f8bd
00000230: 2ea9 833d 480b 03bd 0db0 073e b4d7 a43d
00000240: 1524 8e3d 8557 043e 2f59 aebb be74 d2bd
00000250: fcb9 4abd 2eb8 e7bd 055d 413d 78f2 583c
00000260: b45a 7fbd b221 7fbd 71b3 29bd 7a8b 2ebd
00000270: 0e64 e2bc 1e7e b3bc aae3 c13d 111e ddbd
00000280: 55fc b93d 4133 a23d b75d adbd 5561 4d3d
00000290: 5da1 12bd 7787 a43d dd87 2e3d 3252 303d
000002a0: 29f6 11bd 2e93 473d 5f9b aebd 2da8 60bd
000002b0: 9580 23bd 785a 403c db5c fc3d f704 00bd
000002c0: dc41 be3c d5cb a33c 63bc f1bd 3490 fdbb
000002d0: 00d3 be3c 9840 5dbd 2345 9a3d c0d6 0dbc
000002e0: 1146 09be 47e0 c0bd 06ca 45bd a1ad 0b3d
000002f0: 7831 9cbc 9ff9 6cbd a537 f53c 6570 88bd
00000300: d133 d8bd 2638 a33d e1bb 1a3d c8a8 cd3c
00000310: 082d 67bd cf7b 7e3c b6cb be3b 692e c03d
00000320: 952d d8bd 9c18 6b3c ceab 8dbd 36b7 0a3e
00000330: 424a 15bc 62b5 2e3d 5329 ecbd 1c01 a43d
00000340: dd68 9e3c 6717 e93d 5873 09be 9890 8fbd
00000350: d152 88bd 6ac6 2d3d a3b4 843d 33fb 89bd
00000360: 4e48 7f3d 39ff eebd 396c 12bc dcf4 d33d
00000370: 2202 7f3d 75d6 e73d ffba b33d b3f5 02be
00000380: c5ec 993d 2c0b 08be 22a1 e53d d8b9 d53d
00000390: 71b6 babc f054 65bc 9f67 d2bc 6ad6 abbd
000003a0: f4d0 dd3d b1a3 393d 3f8e dfbd ab94 f0bd
000003b0: 037f c6bd 8e6f 5d3d 2166 31bc 03ed 5a3d
000003c0: ce27 e83d 6468 d43d a4f4 fb3d f6ab 053e
000003d0: f697 ed3c 6742 abbd 4596 22bd 3c52 013d
000003e0: 71ed 9abc 33a4 dcbd 2067 b63d 241f f03d
000003f0: 7342 ddbc 35af a7bd f2e3 ab3d d1a1 b43d

lstm.weight_hh_l1 f4 [256, 64]
-0.059129767 0.04751199 -0.03161024 0.08713903 0.04936191 0.11214044 -0.0019805874 -0.04963144
-0.048203867 0.091153115 -0.022639824 -0.030782292 0.071853444 -0.068558544 0.0466542 0.028598407
0.10726112 -0.021620419 0.06844847 -0.0041391067 -0.0113582 -0.060873922 0.07303636 -0.082129724
0.049817987 0.0017236185 -0.1315229 0.05653981 0.073659524 0.03773486 -0.052316003 0.0047753197
0.09256794 -0.049093574 -0.065291494 0.058332756 -0.09792683 -0.09563051 0.13123274 0.0054004667
0.04271408 0.025058175 -0.015752222 8.4824394e-05 -0.032804765 0.048916157 0.021748213 0.013854265
0.08109112 0.045599803 0.017937547 -0.07791043 0.11909868 -0.04928034 0.008255037 0.020939281
-0.02950455 -0.0022100518 -0.026923886 -0.07912416 -0.06988829 0.082671136 -0.010846852 0.10723524
-0.017116502 -0.034099046 0.0570757 -0.06398193 -0.0003076492 0.013669506 -0.06680191 0.06848719
0.10794075 0.10527192 -0.064960964 -0.08521271 0.10100023 -0.016039835 0.035739772 -0.07664532
-0.061098933 0.016739275 -0.048680697 0.099473104 -0.008264526 0.097389914 0.05670592 -0.07669545
-0.10858996 0.119609796 -0.007855274 -0.0119206365 -0.027739003 0.0094022155 0.070869654 0.090155974
-0.057968047 -0.04463838 -0.018962394 0.10531183 0.014077554 0.10233412 -0.118738525 0.014166888
-0.052482657 0.048343956 -0.064991616 -0.025861163 -0.053182118 0.08562587 -0.06319216 -0.12893973
-0.016640445 0.06899541 0.07615598 -0.11402384 0.030955957 0.08184043 -0.038948152 -0.11122852
-0.0075611444 -0.01264513 -0.065666795 -0.06052871 -0.086002596 -0.1112366 -0.10304995 0.03131927
0.065388575 0.026803784 0.04501721 -0.12575671 0.06913612 -0.073557675 -0.057771683 -0.1102312
-0.076731145 -0.07247283 -0.10339525 0.060815368 -0.012230902 0.027740844 -0.03563976 0.066045895
0.017147684 0.040436663 0.10938609 0.022186905 0.014166348 -0.06622431 0.063024856 0.07615161
-0.0119359745 0.03514136 -0.117961906 0.06357089 0.030379798 -0.10477997 -0.029148407 0.081365764
-0.09450868 -0.04631613 0.030638939 -0.017143995 -0.06439777 -0.011612489 -0.05031283 0.05803904
-0.06911252 0.012629188 0.08534331 -0.024033625 0.0032049895 0.041672595 0.021503154 -0.08222869
-0.0016591316 -0.07185016 -0.07513463 0.08372787 -0.082305714 0.086588144 0.12500143 -0.06201446
-0.10031943 -0.109148405 0.0047281682 -0.054684315 -0.0777982 0.08430531 0.022327458 -0.0752254
-0.0634768 -0.13365291 -0.052092798 -0.031360403 0.048417546 -0.10525125 0.036520254 -0.0029468965
0.11593907 0.10238099 0.031632226 0.10263214 -0.07512823 0.053336937 0.0029364943 0.072080985
0.08404728 0.057923567 0.02938401 -0.024990298 -0.0772118 -0.00090762036 0.023086019 0.04265971
0.012855165 -0.08448871 0.09556527 0.08801325 0.08015321 0.105148576 -0.023771357 -0.07040217
0.09781004 -0.11180198 0.063097015 -0.057739224 -0.014491569 0.023655055 0.05022614 0.0021723292
-0.041200608 0.034559194 0.0058417693 0.066883035 -0.00244875 -0.041065276 0.07931651 -0.02204796
0.044715483 -0.041885763 -0.09111538 0.11599806 0.066757694 -0.08746484 -0.09164892 -0.0732111
-0.09583674 -0.08659449 0.08414631 -0.07231471 -0.12024672 -0.070078515 0.041438628 0.07429755
00000000: 0e32 72bd ef9b 423d bd79 01bd f375 b23d
00000010: b72f 4a3d e3a9 e53d becc 01bb 564a 4bbd
00000020: 6b71 45bd 7cae ba3d 2777 b9bc 252b fcbc
00000030: e627 933d 6c68 8cbd 7918 3f3d 3547 ea3c
00000040: b8ab db3d 4e1d b1bc b62e 8c3d 58a1 87bb
00000050: be17 3abc ef56 79bd 1694 953d a133 a8bd
00000060: f20d 4c3d 0aeb e13a f0ad 06be 4a96 673d
00000070: ceda 963d de8f 1a3d 4e49 56bd 497a 9c3b
00000080: 4394 bd3d 5816 49bd 8cb7 85bd 54ee 6e3d
00000090: dd8d c8bd eed9 c3bd e061 063e 66f6 b03b
000000a0: f6f4 2e3d cd46 cd3c ce0a 81bc c0e3 b138
000000b0: 4a5e 06bd 4f5c 483d 4f29 b23c 00fd 623c
000000c0: 1a13 a63d dcc6 3a3d c3f1 923c 818f 9fbd
000000d0: 02ea f33d 2fda 49bd 2240 073c db88 ab3c
000000e0: 87b3 f1bc 84d6 10bb 7b8f dcbc d90b a2bd
000000f0: 9721 8fbd 7c4f a93d ffb6 31bc 269e db3d
00000100: e837 8cbc 71ab 0bbd 36c8 693d f508 83bd
00000110: fa4b a1b9 10f6 5f3c 71cf 88bd 0343 8c3d
00000120: 0a10 dd3d ce98 d73d 410a 85bd 0084 aebd
00000130: 35d9 ce3d f965 83bc de63 123d 39f8 9cbd
00000140: e042 7abd ce20 893c 6965 47bd 8eb8 cb3d
00000150: ef67 07bc 5d74 c73d 7744 683d 8112 9dbd
00000160: 6a64 debd fbf5 f43d 68b3 00bc c64e 43bc
00000170: e83c e3bc c00b 1a3c 1c24 913d b2a3 b83d
00000180: e76f 6dbd bcd6 36bd 0657 9bbc bbad d73d
00000190: 8ba5 663c 8d94 d13d 2f2d f3bd 3c1c 683c
000001a0: 0ef8 56bd 5004 463d 531a 85bd cada d3bc
000001b0: 7ed5 59bd 9e5c af3d e46a 81bd c708 04be
000001c0: 8b51 88bc 774d 8d3d abf7 9b3d 5585 e9bd
000001d0: 5997 fd3c f59b a73d 1988 1fbd c7cb e3bd
000001e0: 7ac3 f7bb 852d 4fbc 507c 86bd f4ec 77bd
000001f0: 2122 b0bd 04d0 e3bd da0b d3bd a348 003d
00000200: 72ea 853d 9c93 db3c f763 383d 5ec6 00be
00000210: 3d97 8d3d 68a5 96bd 00a2 6cbd e5c0 e1bd
00000220: 3825 9dbd a36c 94bd e4c0 d3bd 8919 793d
00000230: 1f64 48bc c440 e33c fffa 11bd 1243 873d
00000240: 4d79 8c3c eaa0 253d d005 e03d 50c1 b53c
00000250: f819 683c 9ca0 87bd 2d13 813d 60f5 9b3d
00000260: 1b8f 43bc 63f0 0f3d 0396 f1bd 7431 823d
00000270: 0edf f83c e296 d6bd a4c8 eebc 18a3 a63d
00000280: c48d c1bd fbb5 3dbd 83fe fa3c 9071 8cbc
00000290: fae2 83bd 4f42 3ebc d314 4ebd 58ba 6d3d
000002a0: dd8a 8dbd a7ea 4e3c 79c8 ae3d 2ae2 c4bc
000002b0: cd0a 523b e2b0 2a3d 6227 b03c 8467 a8bd
000002c0: 3877 d9ba 2d26 93bd 2fe0 99bd 8479 ab3d
000002d0: e68f a8bd 2055 b13d 6000 003e e002 7ebd
000002e0: 4674 cdbd 3389 dfbd c0ee 9a3b a9fc 5fbd
000002f0: aa54 9fbd 43a8 ac3d 13e8 b63c c60f 9abd
00000300: 2000 82bd 4fdc 08be 425f 55bd c473 00bd
00000310: 7a51 463d f88d d7bd 4396 153d b820 41bb
00000320: 7771 ed3d 20ad d13d cb90 013d cd30 d23d
00000330: d4dc 99bd d577 5a3d 3372 403b 329f 933d
00000340: fb20 ac3d 4341 6d3d bcb6 f03c 74b8 ccbc
00000350: 3821 9ebd 5fed 6dba e41e bd3c f3bb 2e3d
00000360: 789e 523c 6b08 adbd b9b7 c33d 4a40 b43d
00000370: 5e27 a43d 2358 d73d 26bc c2bc 032f 90bd
00000380: a150 c83d 70f8 e4bd 0239 813d f77f 6cbd
00000390: 0c6e 6dbc 3fc8 c13c edb9 4d3d a35d 0e3b
000003a0: f8c1 28bd f18d 0d3d 506c bf3b f9f9 883d
000003b0: 357b 20bb 1034 28bd b270 a23d ec9d b4bc
000003c0: 9527 373d 6890 2bbd b39a babd 6490 ed3d
000003d0: 42b8 883d c420 b3bd 6eb2 bbbd b4ef 95bd
000003e0: 0e46 c4bd 7458 b1bd e754 ac3d bc19 94bd
000003f0: ea43 f6bd 5385 8fbd 8dbb 293d 5029 983d

lstm.bias_ih_l1 f4 [256]
-0.0694579 0.047542207 0.10367538 0.035336696 0.043938883 -0.062372923 -0.10295507 0.09038636
0.003774861 0.03329559 0.06781097 0.013404547 0.033960897 0.10657012 0.02793182 -0.04436081
-0.09711217 -0.0859185 -0.09752959 -0.10729883 0.113043815 0.009546101 0.0804957 0.111281075
-0.053075794 -0.08743573 -0.105205715 0.026183397 0.0035238597 0.019841226 -0.11664337 -0.044258844
-0.03212439 0.09984112 -0.003918884 -0.07720697 0.057821933 0.069805264 -0.04057061 -0.037558354
0.1051284 0.093328446 0.030574389 0.044449415 -0.052061237 0.055578206 0.04635204 0.021534102
0.059280116 -0.10643337 -0.07991994 0.046674367 0.10250129 -0.0048891073 0.033734344 0.07544338
-0.06884613 -0.007152442 -0.12278187 0.03749802 0.02381654 -0.09383037 -0.03324094 0.062146313
-0.112349235 0.060034353 0.12599932 -0.12927225 0.021347601 0.090190664 -0.029233202 -0.0279961
-0.006607407 0.08100816 0.0031533216 0.030120088 -0.028537128 -0.07448754 -0.011155492 0.10952196
-0.08157421 0.04296308 0.0773999 0.08794805 0.07701216 0.07775227 -0.0537181 0.0028678658
0.01951422 0.07280939 -0.028478522 0.10666673 -0.05493432 0.0037138185 0.060630005 0.013992233
-0.12727548 -0.054254558 -0.07845042 -0.049283653 -0.1296949 0.040330105 -0.09822629 0.054481734
-0.10164205 0.074079216 0.021927152 0.08315927 -0.05559659 0.032811105 -0.10215162 0.026571123
-0.07761281 0.070125215 -0.0803201 -0.018515557 0.110798 0.055906985 -0.08338404 -0.0554879
0.07431408 0.002949621 0.07275585 -0.03198787 0.03208957 0.07417491 0.116429426 -0.02816656
0.06551188 0.08599641 0.0728961 -0.032531668 0.040518623 0.047742717 -0.13150452 -0.08252305
-0.05696808 -0.010126993 -0.0676648 0.0792051 0.021020796 -0.029781668 -0.09883437 0.031429563
0.10223663 -0.013692033 -0.09991399 -0.03129891 -0.12758966 0.03564026 -0.12272665 -0.04812517
0.046192348 -0.051332563 -0.0020015347 -0.066732205 -0.0047575147 -0.10565652 -0.05292291 -0.08006537
0.057502195 -0.12984169 -0.001816776 0.08489282 -0.01438399 0.045885257 0.0065205437 0.10882227
0.028498614 0.0023851092 0.05896089 -0.036922637 0.0738794 -0.05951153 0.02985701 0.06110328
0.06429508 0.07331405 0.05351489 -0.009643026 0.07692502 -0.035495944 0.04164727 0.08772293
-0.06909321 0.119461685 -0.1104988 0.071001 -0.066805415 -0.00086528703 0.03687302 0.03549553
0.0752197 0.021782124 0.111765124 -0.104631916 -0.06360972 0.08970757 0.07444896 -0.06952855
-0.12772532 -0.1121216 -0.050017312 0.10247076 0.08309968 -0.046353973 0.05393652 0.026027497
0.10873431 0.0844712 0.10445955 -0.06288798 0.026672637 0.06969982 0.072981186 0.036276016
-0.007310021 0.031575132 0.06094844 0.009869007 0.09876033 -0.064511694 0.070607685 -0.050412714
0.034156933 -0.03178909 0.115922354 -0.020989466 0.012831957 -0.06881382 -0.063966915 0.08940452
-0.03554481 -0.06335686 -0.101698846 -0.06921461 -0.122883774 0.056157503 0.029491182 -0.06391145
-0.07443657 0.043848895 -0.034329638 -0.07992889 -0.04009419 0.069694154 -0.03617741 0.030321013
0.03051686 -0.05816674 -0.011058145 -0.060791746 0.05506494 0.090098105 -0.032693963 0.0618314
00000000: f23f 8ebd 9ebb 423d c253 d43d 36bd 103d
00000010: 42f9 333d c07a 7fbd 1cda d2bd 7c1c b93d
00000020: a963 773b f560 083d 7ae0 8a3d bf9e 5b3c
00000030: 951a 0b3d 6f41 da3d 46d1 e43c aeb3 35bd
00000040: bfe2 c6bd 0af6 afbd 98bd c7bd 7dbf dbbd
00000050: 8483 e73d 4067 1c3c eeda a43d 55e7 e33d
00000060: 0166 59bd 8111 b3bd 1876 d7bd 907e d63c
00000070: 8ef0 663b 118a a23c b8e2 eebd c348 35bd
00000080: dd94 03bd 8079 cc3d fb69 80bb b01e 9ebd
00000090: b1d6 6c3d 10f6 8e3d 5e2d 26bd cad6 19bd
000000a0: 8f4d d73d fc22 bf3d 2477 fa3c 9710 363d
000000b0: 2a3e 55bd f9a5 633d a3db 3d3d 4968 b03c
000000c0: b5cf 723d bdf9 d9bd 11ad a3bd 9f2d 3f3d
000000d0: 32ec d13d ce34 a0bb 062d 0a3d 0f82 9a3d
000000e0: 33ff 8cbd 085f eabb 1075 fbbd 8697 193d
000000f0: e81a c33c 232a c0bd a727 08bd 228d 7e3d
00000100: 5b17 e6bd 95e6 753d f705 013e f25f 04be
00000110: 2ae1 ae3c e2b5 b83d 787a efbc 1458 e5bc
00000120: f282 d8bb 9be7 a53d f5a7 4e3b 67be f63c
00000130: b2c6 e9bc ec8c 98bd 86c5 36bc 0d4d e03d
00000140: 6110 a7bd 0efa 2f3d d783 9e3d 1b1e b43d
00000150: 8db8 9d3d 953c 9f3d 8307 5cbd cef2 3b3b
00000160: 49dc 9f3c 171d 953d ca4b e9bc 1674 da3d
00000170: cf02 61bd 8963 733b 2b57 783d ae3f 653c
00000180: 8154 02be 073a 5ebd 9daa a0bd a8dd 49bd
00000190: bdce 04be 2e31 253d dd2a c9bd 3d28 5f3d
000001a0: b529 d0bd d8b6 973d 92a0 b33c 684f aa3d
000001b0: 40b9 63bd f064 063d de34 d1bd afab d93c
000001c0: 77f3 9ebd cf9d 8f3d dd7e a4bd f0ad 97bc
000001d0: 10ea e23d b9fe 643d 40c5 aabd 4847 63bd
000001e0: fb31 983d 6e4e 413b 0501 953d b605 03bd
000001f0: 5a70 033d 04e9 973d 8d72 ee3d 8fbd e6bc
00000200: 182b 863d e31e b03d 8d4a 953d ed3f 05bd
00000210: dbf6 253d de8d 433d 1fa9 06be d801 a9bd
00000220: 5d57 69bd b0eb 25bc d893 8abd 4936 a23d
00000230: ce33 ac3c aff8 f3bc ad69 cabd 49bc 003d
00000240: 7061 d13d 8c54 60bc b59f ccbd 4933 00bd
00000250: dda6 02be 85fb 113d 1c58 fbbd e61e 45bd
00000260: 3034 3d3d 1842 52bd 2e2c 03bb e5aa 88bd
00000270: ede4 9bbb 7262 d8bd b1c5 58bd 50f9 a3bd
00000280: 6c87 6b3d 38f5 04be e320 eeba 49dc ad3d
00000290: d4aa 6bbc 2ef2 3b3d 49aa d53b 36de de3d
000002a0: ed75 e93c 7e4f 1c3b f980 713d 313c 17bd
000002b0: 154e 973d 5dc2 73bd b096 f43c 6f47 7a3d
000002c0: 24ad 833d ad25 963d 6e32 5b3d c8fd 1dbc
000002d0: dd8a 9d3d 3264 11bd 5496 2a3d 14a8 b33d
000002e0: be80 8dbd 54a8 f43d 324d e2bd f968 913d
000002f0: 47d1 88bd 6ed4 62ba 2a08 173d c363 113d
00000300: c90c 9a3d 6d70 b23c 1de5 e43d 4249 d6bd
00000310: d045 82bd 9ab8 b73d b278 983d fc64 8ebd
00000320: 6dca 02be 02a0 e5bd f4de 4cbd 31dc d13d
00000330: 2a30 aa3d aadd 3dbd 8aec 5c3d 9e37 d53c
00000340: 18b0 de3d 3dff ac3d e3ee d53d 6acb 80bd
00000350: 9380 da3c c7be 8e3d 2977 953d 2996 143d
00000360: e788 efbb ed54 013d 12a5 793d 9eb1 213c
00000370: db42 ca3d b51e 84bd c39a 903d 907d 4ebd
00000380: 24e8 0b3d 4735 02bd b368 ed3d 1af2 abbc
00000390: 213d 523c 43ee 8cbd 1601 83bd b819 b73d
000003a0: 6f97 11bd 3ec1 81bd 7c47 d0bd 64c0 8dbd
000003b0: 7daa fbbd 6905 663d 7e97 f13c 02e4 82bd
000003c0: 3372 98bd e69a 333d 3c9d 0cbd c2b1 a3bd
000003d0: ce39 24bd cfbb 8e3d c42e 14bd c663 f83c
000003e0: 7efe f93c 3f40 6ebd 392d 35bc c400 79bd
000003f0: c68b 613d 5b85 b83d 1bea 05bd ec42 7d3d
